device = cuda
simulation_speed = 1
state_size = 194
action_size = 2
hidden_size = 256
input_size = 194
batch_size = 256
buffer_size = 256000
discount_factor = 0.99
learning_rate = 0.001
tau = 0.01
step_time = 0.01
loss_function = <function mse_loss at 0x76e306176ef0>
epsilon = 1.0
epsilon_decay = 0.9995
epsilon_minimum = 0.2
reward_function = A
backward_enabled = False
stacking_enabled = False
stack_depth = 3
frame_skip = 4
visual = None
networks = [Actor(
  (fa1): Linear(in_features=194, out_features=256, bias=True)
  (fa2): Linear(in_features=256, out_features=256, bias=True)
  (fa3): Linear(in_features=256, out_features=256, bias=True)
  (fa4): Linear(in_features=256, out_features=2, bias=True)
), Actor(
  (fa1): Linear(in_features=194, out_features=256, bias=True)
  (fa2): Linear(in_features=256, out_features=256, bias=True)
  (fa3): Linear(in_features=256, out_features=256, bias=True)
  (fa4): Linear(in_features=256, out_features=2, bias=True)
), Critic(
  (l01): Linear(in_features=196, out_features=256, bias=True)
  (l02): Linear(in_features=256, out_features=256, bias=True)
  (l03): Linear(in_features=256, out_features=256, bias=True)
  (l04): Linear(in_features=256, out_features=1, bias=True)
  (l11): Linear(in_features=196, out_features=256, bias=True)
  (l12): Linear(in_features=256, out_features=256, bias=True)
  (l13): Linear(in_features=256, out_features=256, bias=True)
  (l14): Linear(in_features=256, out_features=1, bias=True)
), Critic(
  (l01): Linear(in_features=196, out_features=256, bias=True)
  (l02): Linear(in_features=256, out_features=256, bias=True)
  (l03): Linear(in_features=256, out_features=256, bias=True)
  (l04): Linear(in_features=256, out_features=1, bias=True)
  (l11): Linear(in_features=196, out_features=256, bias=True)
  (l12): Linear(in_features=256, out_features=256, bias=True)
  (l13): Linear(in_features=256, out_features=256, bias=True)
  (l14): Linear(in_features=256, out_features=1, bias=True)
)]
iteration = 0
noise = <drlagent_off_policy_agent.OUNoise object at 0x76e2eb7df610>
policy_noise = 0.2
noise_clip = 0.4
policy_freq = 2
last_actor_loss = 0
actor_optimizer = AdamW (
Parameter Group 0
    amsgrad: False
    betas: (0.9, 0.999)
    capturable: False
    differentiable: False
    eps: 1e-08
    foreach: None
    fused: None
    lr: 0.001
    maximize: False
…
