device = cuda
algorithm = sac
state_size = 194
action_size = 2
hidden_size = 256
input_size = 194
batch_size = 128
buffer_size = 128000
discount_factor = 0.99
learning_rate_actor = 0.0001
learning_rate_critic = 0.0001
tau = 0.05
loss_function = <function mse_loss at 0x78c9da96e9e0>
epsilon = 0.99
epsilon_decay = 0.9995
epsilon_minimum = 0.2
visual = None
networks = [Actor(
  (fc1): Linear(in_features=194, out_features=256, bias=True)
  (fc2): Linear(in_features=256, out_features=256, bias=True)
  (fc3): Linear(in_features=256, out_features=256, bias=True)
  (mean): Linear(in_features=256, out_features=2, bias=True)
  (log_std): Linear(in_features=256, out_features=2, bias=True)
), Critic(
  (fc1): Linear(in_features=196, out_features=256, bias=True)
  (fc2): Linear(in_features=256, out_features=256, bias=True)
  (fc3): Linear(in_features=256, out_features=256, bias=True)
  (q): Linear(in_features=256, out_features=1, bias=True)
), Critic(
  (fc1): Linear(in_features=196, out_features=256, bias=True)
  (fc2): Linear(in_features=256, out_features=256, bias=True)
  (fc3): Linear(in_features=256, out_features=256, bias=True)
  (q): Linear(in_features=256, out_features=1, bias=True)
), QValue(
  (fc1): Linear(in_features=194, out_features=256, bias=True)
  (fc2): Linear(in_features=256, out_features=256, bias=True)
  (fc3): Linear(in_features=256, out_features=256, bias=True)
  (val): Linear(in_features=256, out_features=1, bias=True)
), QValue(
  (fc1): Linear(in_features=194, out_features=256, bias=True)
  (fc2): Linear(in_features=256, out_features=256, bias=True)
  (fc3): Linear(in_features=256, out_features=256, bias=True)
  (val): Linear(in_features=256, out_features=1, bias=True)
)]
iteration = 0
alpha = 0.2
critic_1 = Critic(
  (fc1): Linear(in_features=196, out_features=256, bias=True)
  (fc2): Linear(in_features=256, out_features=256, bias=True)
  (fc3): Linear(in_features=256, out_features=256, bias=True)
  (q): Linear(in_features=256, out_features=1, bias=True)
)
critic_2 = Critic(
  (fc1): Linear(in_features=196, out_features=256, bias=True)
  (fc2): Linear(in_features=256, out_features=256, bias=True)
  (fc3): Linear(in_features=256, out_features=256, bias=True)
  (q): Linear(in_features=256, out_features=1, bias=True)
)
q_value = QValue(
  (fc1): Linear(in_features=194, out_features=256, bias=True)
  (fc2): Linear(in_features=256, out_features=256, bias=True)
  (fc3): Linear(in_features=256, out_features=256, bias=True)
  (val): Linear(in_features=256, out_features=1, bias=True)
)
q_value_target = QValue(
  (fc1): Linear(in_features=194, out_features=256, bias=True)
  (fc2): Linear(in_features=256, out_features=256, bias=True)
  (fc3): Linear(in_features=256, out_features=256, bias=True)
  (val): Linear(in_features=256, out_features=1, bias=True)
)
actor_optimizer = AdamW (
Parameter Group 0
    amsgrad: False
    betas: (0.9, 0.999)
    capturable: False
    differentiable: False
    eps: 1e-08
    foreach: None
    fused: None
    lr: 0.0001
    maximize: False
    weight_decay: 0.01
)
critic_1_optimizer = AdamW (
Parameter Group 0
    amsgrad: False
    betas: (0.9, 0.999)
    capturable: False
…
